lightning_logs/lightning_logs/version_49/checkpoints/epoch=9-step=200.ckpt (torch, 155355 bytes, 32 tensors)

q_network.network.0.weight f4 [64, 4]
0.3071369 0.56465936 0.8862838 0.46415916 0.0933016 0.20930319 0.13285695 0.08209068
-0.24731635 0.5666892 0.5586643 -0.43123993 -0.39430523 -0.31857422 -1.4581822 -0.27410844
-0.32690558 0.17249262 -0.5740606 0.06556999 0.41443443 -0.18043843 -0.23620185 -0.23872377
-0.022354782 0.55847543 0.6339397 -0.038978994 -0.31213644 -0.2317923 1.0082698 -0.1262126
0.019839525 0.00080502755 0.44367245 -0.1406742 0.42817613 0.29672173 -0.29125378 0.15341896
0.12484132 0.06759575 1.089083 0.1540036 0.124456 -0.5983405 -1.2479246 -0.6538895
0.04101261 -0.25945958 -1.1524353 -0.3436689 -0.1506714 0.04606791 -0.33672127 0.1264315
-0.0050008353 0.23122421 -0.30113736 -0.24059288 0.09792485 0.2685657 -0.09669924 0.13954464
-0.4863758 0.44674516 0.9647656 0.62064 0.023043144 0.45842966 -0.41762543 -0.036780532
-0.07213605 0.18513925 1.306098 0.32874432 0.87978524 0.15463817 -0.89462405 0.023787927
0.22405624 0.52713346 0.87523305 0.4263231 -0.26475042 0.39823976 0.23945932 0.28462484
-0.15041225 -0.24499401 0.8071498 0.24143504 -0.36112386 0.45067185 -0.20395736 0.2594678
-0.84257865 -0.05724969 0.25590122 0.04244232 0.018947521 -0.022549244 0.44305924 0.5623631
0.7514745 -0.23556824 -0.38279435 -0.19354811 0.45189476 0.3866448 1.135912 0.2831517
0.044395402 0.012976618 -1.5981715 -0.510711 -0.065395035 -0.24020797 0.36824775 -0.3966986
-0.20193928 0.27213544 0.13860154 0.21491444 0.36276618 0.22576892 -0.08446231 0.24619466
0.42494732 0.086586 0.13957544 0.25044873 -0.27283153 0.021489091 1.056047 0.2809183
0.14098538 -0.37746024 0.4835363 0.4239907 -0.28934744 -0.38636962 -0.30471966 0.5020806
0.14871871 0.16473906 0.4465932 -0.10595674 0.66734654 0.30685383 -0.09213088 -0.44427365
-0.41958323 -0.11463328 -0.250924 0.33052957 0.016358819 0.50063366 0.40417737 -0.22294535
-0.27991086 0.40662342 -0.45193934 0.17755157 -0.38233113 0.10438467 0.27250913 0.14093429
0.7766736 0.5300003 0.45395875 0.39242002 0.19483349 -0.5964892 -0.3685567 0.20254731
0.32545123 0.34622037 0.18934126 0.2515303 -0.24935104 0.39179373 -0.3143019 0.17056285
-0.27362016 0.27023154 -0.10130196 0.044081338 0.58698076 -0.21221912 -0.7514509 -0.31088802
-0.28903788 -0.4221387 -0.17225502 -0.058506243 -0.2607063 -0.2449615 -1.1588904 -0.40242547
0.24389897 0.39001006 -0.01296006 0.33755282 0.33463627 0.37686738 0.28247374 0.3654603
0.3707398 0.2091641 -0.1666885 0.19193701 -0.2648245 0.07260704 -1.3950348 -0.07354146
0.1130407 -0.4024557 -0.21643002 0.20020914 -0.3677928 0.28269714 0.67245734 0.45976025
0.061805904 -0.2707421 -0.6162074 -0.15939967 0.039889276 0.053833593 -0.2811473 -0.49028006
-0.3475422 0.26167116 1.0293384 0.37648505 -0.2516715 -0.2757945 0.1887806 -0.012413728
0.3800799 0.34810314 0.7110849 0.3067776 0.48707074 0.065022826 -0.31485736 -0.44018543
-0.24201933 0.3875673 0.50833786 0.21548687 0.057692856 -0.2624604 -0.27605236 0.012848596
00000000: 0c41 9d3e 848d 103f 7fe3 623f 45a6 ed3e
00000010: e914 bf3d 9353 563e a70b 083e 291f a83d
00000020: 7f40 7dbe 8b12 113f a004 0f3f 7bcb dcbe
00000030: 60e2 c9be 291c a3be b7a5 babf f157 8cbe
00000040: 2b60 a7be e8a1 303e a3f5 12bf 8f49 863d
00000050: c030 d43e dac4 38be e6de 71be 0174 74be
00000060: 6021 b7bc 3ff8 0e3f df49 223f 70a8 1fbd
00000070: 59d0 9fbe f65a 6dbe fc0e 813f e03d 01be
00000080: 8086 a23c 7c08 533a 0929 e33e e60c 10be
00000090: e739 db3e e9eb 973e 371f 95be dc19 1d3e
000000a0: ceac ff3d a46f 8a3d 1267 8b3f 1fb3 1d3e
000000b0: cae2 fe3d d82c 19bf febb 9fbf 4d65 27bf
000000c0: d7fc 273d e3d7 84be 0083 93bf 5ff5 afbe
000000d0: 9a49 1abe b4b1 3c3d bb66 acbe 4277 013e
000000e0: 0cde a3bb 0ac6 6c3e ad2e 9abe fb5d 76be
000000f0: d38c c83d 7281 893e 400a c6bd cae4 0e3e
00000100: 4006 f9be c8bb e43e e1fa 763f 43e2 1e3f
00000110: fac4 bc3c 4bb7 ea3e 00d3 d5be 2fa7 16bd
00000120: 11bc 93bd 2595 3d3e 382e a73f 2d51 a83e
00000130: 9b39 613f 7859 1e3e 1506 65bf e6de c23c
00000140: 006f 653e 38f2 063f 460f 603f 0547 da3e
00000150: 5e8d 87be 15e6 cb3e d334 753e 59ba 913e
00000160: ab05 1abe b6df 7abe 5fa1 4e3f bf3a 773e
00000170: 3ae5 b8be 76be e63e 33da 50be f7d8 843e
00000180: 3cb3 57bf a77e 6abd 7c05 833e 00d8 2d3d
00000190: d537 9b3c 31b9 b8bc a9d8 e23e 07f7 0f3f
000001a0: a260 403f cd38 71be 9ffd c3be 7a31 46be
000001b0: c05e e73e 4ff6 c53e 9065 913f 42f9 903e
000001c0: f4d7 353d e19b 543c e290 ccbf f5bd 02bf
000001d0: d5ed 85bd 14f9 75be f88a bc3e 141c cbbe
000001e0: 2cc9 4ebe 5655 8b3e 90ed 0d3e 8812 5c3e
000001f0: 7dbc b93e f82f 673e 93fa acbd 741a 7c3e
00000200: b292 d93e 0054 b13d ddec 0e3e d13a 803e
00000210: 93b0 8bbe e409 b03c 8c2c 873f 86d4 8f3e
00000220: 795e 103e 7842 c1be 1292 f73e 4f15 d93e
00000230: 5925 94be 3dd2 c5be 3704 9cbe 5b88 003f
00000240: b849 183e 5bb1 283e dda7 e43e d9ff d8bd
00000250: 39d7 2a3f f21b 9d3e 1daf bcbd d677 e3be
00000260: 9dd3 d6be dac4 eabd 1c79 80be 2c3b a93e
00000270: ee02 863c 8729 003f 56f0 ce3e c94b 64be
00000280: 7a50 8fbe f230 d03e 9864 e7be 14d0 353e
00000290: e8c0 c3be a1c7 d53d 5186 8b3e 1451 103e
000002a0: 15d4 463f 1aae 073f 486d e83e 47eb c83e
000002b0: 6e82 473e 84b3 18bf 77b3 bcbe 9068 4f3e
000002c0: 8ba1 a63e cc43 b13e ade2 413e 94c8 803e
000002d0: e155 7fbe 3099 c83e 2eec a0be 07a8 2e3e
000002e0: f117 8cbe ca5b 8a3e 6777 cfbd a28e 343d
000002f0: 5f44 163f f84f 59be 165f 40bf b72c 9fbe
00000300: c6fc 93be 9022 d8be 9f63 30be 3ea4 6fbd
00000310: 4c7b 85be 30d7 7abe 8556 94bf b60a cebe
00000320: a7c0 793e 66af c73e 6e56 54bc b9d3 ac3e
00000330: 7255 ab3e c3f4 c03e 66a0 903e 9d1d bb3e
00000340: 9bd1 bd3e 1d2f 563e 64b0 2abe 238b 443e
00000350: 1497 87be 00b3 943d 8090 b2bf e89c 96bd
00000360: e281 e73d ac0e cebe d59f 5dbe a003 4d3e
00000370: 564f bcbe aebd 903e 2a26 2c3f b265 eb3e
00000380: 3028 7d3d b59e 8abe c5bf 1dbf ab39 23be
00000390: f062 233d 9d80 5c3d 8af2 8fbe fd05 fbbe
000003a0: 0df1 b1be c3f9 853e 5cc1 833f a6c2 c03e
000003b0: 16db 80be f034 8dbe b44f 413e f362 4bbc
000003c0: d599 c23e 933a b23e a909 363f f411 9d3e
000003d0: 5661 f93e b02a 853d fc34 a1be fc5f e1be
000003e0: ead3 77be 396f c63e 6e22 023f 97a8 5c3e
000003f0: 584f 6c3d 3661 86be bc56 8dbe eb82 523c

q_network.network.0.bias f4 [64]
0.015030808 0.19112211 -0.23116963 0.22623909 0.36924458 0.33980957 -0.25463185 0.22962748
0.3779012 0.5792283 -0.16450964 -0.3259631 -0.23918864 0.32399195 0.54396516 -0.42228138
-0.36006337 -0.56379294 -0.35494116 0.15680967 -0.035089035 0.18291289 -0.61830425 0.32950625
-0.21229993 -0.5630768 -0.20207757 -0.22482724 -0.3503582 0.53714216 -0.4813931 0.42050898
0.52623296 0.4308778 -0.090925805 0.40716136 0.4562014 -0.17793341 0.3977079 0.52381945
-0.48211038 0.23638399 -0.48270142 -0.09854889 0.39639136 0.42125878 0.46113 0.3497337
0.116986305 -0.20725754 0.39980617 0.52480245 0.4838693 -0.2048939 0.4436464 -0.4007137
0.39026538 -0.2823287 -0.36124578 0.3921423 -0.23869587 -0.32556984 0.17574516 0.53268003
00000000: c743 763c 84b5 433e bbb7 6cbe 38ab 673e
00000010: a00d bd3e 85fb ad3e 1b5f 82be 7723 6b3e
00000020: 447c c13e 4e48 143f 3775 28be a3e4 a6be
00000030: deed 74be 46e2 a53e 4d41 0b3f 4435 d8be
00000040: 3a5a b8be bc54 10bf d9ba b5be b792 203e
00000050: 85b9 0fbd 844d 3b3e 3049 1ebf 0bb5 a83e
00000060: 2765 59be cd25 10bf 6ced 4ebe 1d39 66be
00000070: 2662 b3be 2682 093f 2879 f6be f44c d73e
00000080: 34b7 063f 049c dc3e 4f37 babd 7477 d03e
00000090: 3b93 e93e 2d34 36be 5fa0 cb3e 0819 063f
000000a0: 2cd7 f6be a50e 723e a424 f7be 00d4 c9bd
000000b0: cff3 ca3e 3baf d73e 3b19 ec3e 4c10 b33e
000000c0: 8496 ef3d 523b 54be 65b3 cc3e 7459 063f
000000d0: b8bd f73e b5cf 51be 9f25 e33e 592a cdbe
000000e0: ddd0 c73e 638d 90be 35f5 b8be e0c6 c83e
000000f0: b16c 74be 17b1 a6be 8af6 333e b85d 083f

q_network.network.2.weight f4 [64, 64]
0.5236634 0.34698468 -0.07469384 -0.32376418 -0.004447407 -0.07287117 -0.32366994 0.17916718
0.2076157 0.17391445 0.85353994 -1.3850515 -0.9107999 -0.0030176362 -0.06828123 0.18644913
1.6837469 0.18816759 1.7918022 -0.19580728 0.61859155 0.20393744 0.011517373 0.13660258
0.188505 0.9532291 -0.13608772 0.45640582 -2.007956 0.005270106 -0.06817955 0.080857046
0.061663702 0.43384713 0.42926595 0.15780671 0.15598296 -0.23384887 0.024155242 0.14058582
-0.057150558 0.085854106 -0.10834414 0.022026394 0.2074185 0.1133671 0.12979272 -0.23960151
-0.3172663 -0.42463112 0.14633484 0.32140455 0.21461968 -1.5050187 0.023629464 1.3995361
0.0096064145 -0.17078939 1.3973548 0.33918488 0.21092768 -0.17814058 0.3149508 -0.0762278
-0.092865005 0.087486975 -0.091595665 0.06351455 0.08025242 0.07481313 0.11424534 0.008464791
-0.09549664 0.090487614 -0.011782838 -0.036716517 -0.031632695 -0.027314287 -0.112585634 0.068842724
-0.008072381 0.0989324 -0.09200041 -0.03798578 0.041715413 -0.030749733 0.073547706 0.060854957
-0.033432167 0.07354978 0.0047099143 -0.050843064 -0.09713827 0.0358768 -0.0032157302 -0.092312224
-0.070964865 -0.084050655 -0.008726623 -0.054143876 -0.07037438 0.075180225 -0.09815675 -0.068389244
-0.031477198 0.057601176 0.036017105 0.058377933 -0.12182357 -0.050840788 -0.085141234 -0.07886671
-0.028439997 -0.04699288 -0.111115545 -0.04158109 0.0726421 -0.03396696 0.094252065 0.0290041
0.06990554 0.009520014 0.09464286 -0.08859189 -0.10183592 0.1131642 -0.035988856 -0.120484106
-0.536521 0.014965457 0.085383564 -0.0881343 0.23623796 0.07514388 0.032625314 -0.0885713
-0.03270592 0.050810557 -0.7402315 -0.41462597 -0.5436601 0.037746202 -0.104886636 -0.3067168
-0.41785353 -0.13561893 -1.0079296 -0.25040466 -0.5261342 0.18971089 -0.2513857 0.20630208
0.0052482686 -0.28154406 -0.66665596 -0.9863798 -0.04148845 0.12511522 -0.007910967 0.116585515
0.1397405 -0.015548715 -0.08231299 0.042550273 -0.010501471 -0.23007354 0.0062846853 -0.07896278
-0.098184034 0.14806783 -0.3364011 -0.067298576 0.1351699 0.17780226 0.12838563 -0.08746681
0.2921792 0.14819892 0.07375658 0.15083295 0.044545874 -0.5502216 0.030160826 -0.054937664
0.18495716 0.11550569 -0.811964 0.092367664 -0.5334045 -0.06728161 0.15809862 0.16404444
-0.41951522 0.1588277 -0.044966515 -0.26029408 0.091926806 -0.041545153 -0.11792052 -0.037111443
0.03756697 0.19108887 -0.61602026 -1.1063123 -1.0035623 -0.004791147 0.09294858 -0.2253936
-0.4106508 -0.06489797 -1.0022701 -0.18585742 -0.359895 0.26358014 -0.35638958 0.15450129
-0.24141535 0.009114438 -0.59789425 -0.8395435 -0.17130256 0.14878066 0.034502402 0.19961932
0.16380838 -0.20835018 -0.11341035 0.09055694 0.12048369 -0.21395293 0.021402651 -0.0099670375
0.121737465 -0.114097364 -0.31981942 0.0509761 0.19778082 0.13243459 0.06973514 -0.04685909
0.092246875 -0.3461878 0.06416283 0.030105827 0.07666224 -0.54952383 0.0022038394 0.021217627
0.16836004 -0.1709949 -0.68964875 0.047177177 -0.422379 -0.07335183 0.12803905 0.17943007
00000000: ce0e 063f faa7 b13e 16f9 98bd 6bc4 a5be
00000010: 8ebb 91bb 7b3d 95bd 11b8 a5be 9a77 373e
00000020: 3699 543e a116 323e 9881 5a3f 5e49 b1bf
00000030: 2f2a 69bf 89c3 45bb 08d7 8bbd 85ec 3e3e
00000040: 0585 d73f 01af 403e c659 e53f b481 48be
00000050: 045c 1e3f fad4 503e 5db3 3c3c 8ce1 0b3e
00000060: 7407 413e d306 743f 945a 0bbe 06ae e93e
00000070: 5a82 00c0 dab0 ac3b b8a1 8bbd 6198 a53d
00000080: 1493 7c3d 3621 de3e bfc8 db3e 1598 213e
00000090: ffb9 1f3e 1476 6fbe 37e1 c53c bbf5 0f3e
000000a0: b416 6abd 47d4 af3d 88e3 ddbd b270 b43c
000000b0: 8465 543e 032d e83d 62e8 043e 195a 75be
000000c0: ba70 a2be 4069 d9be cdd8 153e 238f a43e
000000d0: 43c5 5b3e 74a4 c0bf 9492 c13c 0024 b33f
000000e0: 3964 1d3c 6ae3 2ebe 86dc b23f a4a9 ad3e
000000f0: 6dfd 573e 7c6a 36be 3b41 a13e 521d 9cbd
00000100: 0230 bebd 5f2c b33d 8296 bbbd eb13 823d
00000110: 615b a43d a037 993d 76f9 e93d e8af 0a3c
00000120: be93 c3bd 9251 b93d ce0c 41bc 0f64 16bd
00000130: 4991 01bd 36c2 dfbc 4c93 e6bd 6afd 8c3d
00000140: 0542 04bc 129d ca3d b66a bcbd fa96 1bbd
00000150: c8dd 2a3d dde6 fbbc 2ea0 963d 0c43 793d
00000160: 2bf0 08bd 44a1 963d a055 9a3b d140 50bd
00000170: 6ef0 c6bd 8df3 123d 00bf 52bb 310e bdbd
00000180: 0756 91bd c022 acbd 1cfa 0ebc f8c5 5dbd
00000190: 7120 90bd 17f8 993d 6806 c9bd a90f 8cbd
000001a0: 3cee 00bd 36ef 6b3d ac86 133d b31d 6f3d
000001b0: a37e f9bd 6e3e 50bd 875e aebd df84 a1bd
000001c0: fffa e8bc 9b7b 40bd 8c90 e3bd ef50 2abd
000001d0: 62c5 943d f020 0bbd 3a07 c13d 029a ed3c
000001e0: a32a 8f3d d5f9 1b3c 1ed4 c13d aa6f b5bd
000001f0: 5a8f d0bd a2c2 e73d 0d69 13bd 5fc0 f6bd
00000200: 7159 09bf ad31 753c 94dd ae3d c27f b4bd
00000210: 5de8 713e 09e5 993d 1fa2 053d df64 b5bd
00000220: a5f6 05bd bb1e 503d d07f 3dbf db49 d4be
00000230: 4f2d 0bbf c39b 1a3d cece d6bd fc09 9dbe
00000240: e6f0 d5be b0df 0abe d603 81bf 0a35 80be
00000250: bbb0 06bf 9243 423e a0b5 80be da40 533e
00000260: abf9 ab3b 8b26 90be f7a9 2abf 6383 7cbf
00000270: cbef 29bd 341e 003e 009d 01bc 63c4 ee3d
00000280: 2218 0f3e 0ac0 7ebc b793 a8bd 3249 2e3d
00000290: 5d0e 2cbc 6698 6bbe c3ef cd3b 3db7 a1bd
000002a0: b614 c9bd 189f 173e c43c acbe d6d3 89bd
000002b0: fa69 0a3e cc11 363e 8677 033e cd21 b3bd
000002c0: 8398 953e 75c1 173e b10d 973d f473 1a3e
000002d0: bc75 363d 53db 0cbf d613 f73c 5106 61bd
000002e0: 6965 3d3e 3f8e ec3d dfdc 4fbf 422b bd3d
000002f0: 338d 08bf f1ca 89bd 9be4 213e 44fb 273e
00000300: b3ca d6be bba3 223e cf2e 38bd 4445 85be
00000310: 1f44 bc3d 402b 2abd 5080 f1bd 2b02 18bd
00000320: d3df 193d cdac 433e 81b3 1dbf a49b 8dbf
00000330: bb74 80bf 0eff 9cbb d35b be3d 94cd 66be
00000340: d240 d2be 3ae9 84bd 634a 80bf 6851 3ebe
00000350: 2844 b8be faf3 863e b278 b6be 9635 1e3e
00000360: 9635 77be b954 153c 990f 19bf 53ec 56bf
00000370: f069 2fbe f559 183e 6452 0d3d 0269 4c3e
00000380: 62bd 273e c059 55be b043 e8bd eb75 b93d
00000390: 27c0 f63d 7a16 5bbe 9d54 af3c c94c 23bc
000003a0: 7e51 f93d e1ab e9bd 5fbf a3be 51cc 503d
000003b0: 0e87 4a3e ef9c 073e 4cd1 8e3d 51ef 3fbd
000003c0: eeeb bc3d 873f b1be cd67 833d 7fa0 f63c
000003d0: 1801 9d3d 98ad 0cbf 4a6e 103b 97d0 ad3c
000003e0: 9366 2c3e 4919 2fbe d28c 30bf db3c 413d
000003f0: 0f42 d8be 7c39 96bd ab1c 033e 84bc 373e

q_network.network.2.bias f4 [64]
0.035431582 0.015172033 0.21209592 0.038262624 -0.114651784 0.22356413 0.181094 0.07332454
-0.014254812 0.15860628 0.040864024 0.18921955 0.15466088 0.12601797 0.081495866 -0.008138704
-0.029441552 0.26071122 0.04215632 0.11558251 0.06689987 0.19800971 -0.07161602 0.13211332
0.10243995 -0.14098337 0.16168895 0.13050933 0.1503198 0.034109958 0.07085029 0.16501375
-0.0037913322 0.20397769 0.076333255 0.21198633 -0.10072974 0.08984232 0.111124866 0.24968553
0.27323318 0.21773393 0.110480174 0.07885914 0.17833088 0.10733953 0.082193784 0.13684604
0.020383518 0.20991772 0.17401955 0.20301525 0.032790452 0.23708633 0.11222698 0.09080061
0.073347196 0.039439585 0.049631152 0.04755871 -0.006879019 0.040454056 0.11639858 0.15411904
00000000: b520 113d 1e94 783c ac2f 593e 45b9 1c3d
00000010: 8ece eabd ffed 643e b570 393e 2d2b 963d
00000020: 048d 69bc af69 223e 0961 273d c5c2 413e
00000030: 6c5f 1e3e db0a 013e 4ee7 a63d 3358 05bc
00000040: 692f f1bc f17b 853e 1bac 2c3d 86b6 ec3d
00000050: cd02 893d 0fc3 4a3e 6bab 92bd b748 073e
00000060: 09cc d13d f25d 10be ca91 253e 3da4 053e
00000070: 6fed 193e e2b6 0b3d f519 913d 5df9 283e
00000080: 0078 78bb 87df 503e 9c54 9c3d f212 593e
00000090: 654b cebd 40ff b73d 6f95 e33d 90ad 7f3e
000000a0: 38e5 8b3e a5f5 5e3e 6e43 e23d e780 a13d
000000b0: 5f9c 363e d4d4 db3d 3755 a83d 5e21 0c3e
000000c0: 56fb a63c acf4 563e 2e32 323e 3be3 4f3e
000000d0: 484f 063d c2c6 723e 42d7 e53d acf5 b93d
000000e0: 0e37 963d 678b 213d 094a 4b3d eccc 423d
000000f0: 6569 e1bb 27b3 253d 6162 ee3d 62d1 1d3e

q_network.network.4.weight f4 [64, 64]
0.0347987 -0.062138632 0.36253098 0.345936 -0.013809987 0.26265305 0.486691 0.2153925
-0.002842554 0.20753251 -0.09194873 0.36877507 0.4646814 0.21544887 0.2767163 -0.08348108
-0.01452092 0.23308872 0.30853438 0.23697102 -0.0397626 0.37831968 -0.051001653 0.26718673
0.2774014 -0.021639114 0.12784982 0.37081474 0.40689543 0.43215692 0.00722689 0.21111329
0.023201048 0.03097543 0.23236784 0.33045945 0.017742945 0.4702298 0.24188979 0.26002455
0.183961 0.2507252 0.25953737 0.21813272 -0.5504019 0.4192019 0.24912377 0.40501702
0.38199806 0.43751726 0.31156793 0.19157499 0.25024965 0.2519021 0.44599518 0.37047827
0.31398383 0.17828944 -0.09055911 -0.1013077 0.43115616 0.16836967 0.16688587 0.14361472
-0.019857576 -0.00013285106 0.41915503 0.20007966 -0.018168341 0.3253919 0.41759086 0.2310555
-0.095393345 0.023845136 0.028521439 0.27068198 0.30299416 0.22811915 0.3140032 -0.067614205
-0.050135743 0.14561078 0.33804613 0.22118863 0.05515832 0.23136471 0.062723815 0.08497515
0.32439944 0.06784843 0.112340905 0.349106 0.31006768 0.45267233 0.008810198 0.42165127
-0.061553538 0.15409467 0.2533762 0.2498316 0.051544838 0.49190176 0.4023024 0.40012723
0.19220796 0.20512201 0.42297894 0.40729252 -0.5695264 0.44766617 0.23835334 0.27819544
0.27563372 0.38407308 0.24320205 0.08592095 0.33451816 0.19113629 0.29706842 0.42793322
0.31157354 0.25255 -0.24752189 -0.041195568 0.41724378 0.19420993 0.09618183 0.30414885
0.41703466 0.0810839 -0.0067587034 0.050367635 0.122815266 0.14488758 0.14449751 0.10006289
-0.08705898 0.009582265 0.07485339 0.061350755 -0.03496611 0.045479815 -0.06187476 0.055225268
-0.1162169 0.19012028 -0.01888152 -0.014302896 0.07778812 0.041355457 -0.05229704 0.007409035
0.08796958 0.11219081 0.09256408 0.06905872 0.33236033 0.21394418 0.110844575 0.16212626
0.019824028 -0.292939 0.107378945 0.16749956 -0.09427086 0.08821305 0.19636814 -0.052835595
-0.21523924 0.089392915 -0.028734865 -0.0075530154 -0.58171195 0.28946167 -0.09143374 0.04708402
0.009240363 0.10763956 0.27140725 -0.06063901 0.091499984 -0.1986753 -0.030813068 0.87417495
0.016932003 0.0606089 -0.5664407 -0.10229301 0.003922787 -0.13029602 -0.0061519095 0.124970704
-0.021696791 -0.08189865 0.23773669 0.34697467 -0.043880142 0.36158204 0.39354694 0.13881974
-0.060270105 0.03166014 -0.08533507 0.26297724 0.26774758 0.3021898 0.22756374 0.056321338
-0.013229577 0.37954324 0.21890534 0.20867793 0.07288151 0.3483669 0.12176486 0.04562731
0.2330614 -0.09766698 0.20986287 0.29296857 0.35052365 0.36678988 -0.0118747745 0.20467724
0.036820933 -0.041754063 0.38539955 0.23328392 -0.119644 0.37362757 0.40145063 0.24083877
0.09851655 0.35195395 0.29791397 0.31840873 -0.51077837 0.29910403 0.30710593 0.5194059
0.47569752 0.3957271 0.24166536 0.2847653 0.3386112 0.007491082 0.42572206 0.22890921
0.37813088 0.3118851 -0.1312711 -0.048390552 0.44855058 0.26300246 0.23659793 0.33596906
00000000: 1589 0e3d 1485 7ebd a99d b93e 861e b13e
00000010: 4943 62bc 767a 863e 902f f93e da8f 5c3e
00000020: 244a 3abb 6783 543e 9e4f bcbd 16d0 bc3e
00000030: b8ea ed3e a19e 5c3e c2ad 8d3e 21f8 aabd
00000040: 27e9 6dbc cfae 6e3e 38f8 9d3e 88a8 723e
00000050: 1cde 22bd 1eb3 c13e 1ce7 50bd b3cc 883e
00000060: 8e07 8e3e 8344 b1bc 10eb 023e 6edb bd3e
00000070: 9954 d03e ac43 dd3e 8ccf ec3b 152e 583e
00000080: 2010 be3c 2fc0 fd3c d6f1 6d3e fb31 a93e
00000090: a759 913c f6c1 f03e f5b1 773e f021 853e
000000a0: 4660 3c3e 0e5f 803e 15e2 843e 2f5e 5f3e
000000b0: 24e7 0cbf a2a1 d63e 4d1a 7f3e 645e cf3e
000000c0: 4095 c33e 4302 e03e d585 9f3e 3c2c 443e
000000d0: b920 803e 50f9 803e 7b59 e43e 54af bd3e
000000e0: 7dc2 a03e 8291 363e 0e77 b9bd 697a cfbd
000000f0: 80c0 dc3e 1969 2c3e 21e4 2a3e bd0f 133e
00000100: 5bac a2bc ef4d 0bb9 7d9b d63e afe1 4c3e
00000110: c6d5 94bc c499 a63e 78ce d53e d099 6c3e
00000120: 965d c3bd e056 c33c cba5 e93c d496 8a3e
00000130: 0d22 9b3e 1198 693e 07c5 a03e 5179 8abd
00000140: 235b 4dbd fe1a 153e 6214 ad3e 467f 623e
00000150: b1ed 613d dfea 6c3e 5875 803d 7407 ae3d
00000160: af17 a63e 1ef4 8a3d fd12 e63d 06be b23e
00000170: 31c1 9e3e abc4 e73e a658 103c ade2 d73e
00000180: 901f 7cbd feca 1d3e 86ba 813e dbd3 7f3e
00000190: ae20 533d 8cda fb3e 95fa cd3e 7add cc3e
000001a0: 2ad2 443e 810b 523e b290 d83e a588 d03e
000001b0: 7bcc 11bf 8034 e53e e612 743e a26f 8e3e
000001c0: dd1f 8d3e 3aa5 c43e f509 793e 53f7 af3d
000001d0: f745 ab3e 3bb9 433e 5a19 983e 101a db3e
000001e0: 9186 9f3e 3c4e 813e 6176 7dbe afbc 28bd
000001f0: faa0 d53e f8de 463e fbfa c43d 66b9 9b3e
00000200: 9185 d53e 510f a63d 1d78 ddbb 4b4e 4e3d
00000210: 9286 fb3d 695d 143e 28f7 133e c6ed cc3d
00000220: fa4b b2bd effe 1c3c bc4c 993d ee4a 7b3d
00000230: a038 0fbd 0b49 3a3d 6370 7dbd e433 623d
00000240: 2003 eebd e4ae 423e 6bad 9abc b256 6abc
00000250: 614f 9f3d 5764 293d 6c35 56bd 7ec7 f23b
00000260: 6529 b43d 4cc4 e53d 3d92 bd3d a86e 8d3d
00000270: 222b aa3e 2f14 5b3e 7b02 e33d 6d04 263e
00000280: 0066 a23c 1afc 95be 7ee9 db3d 0185 2b3e
00000290: 1511 c1bd 0ba9 b43d bb14 493e 236a 58bd
000002a0: ad67 5cbe a213 b73d 6165 ebbc 497f f7bb
000002b0: 13eb 14bf 5234 943e 9d41 bbbd 2cdb 403d
000002c0: e464 173c 2172 dc3d e4f5 8a3e 9c60 78bd
000002d0: 5864 bb3d 8a71 4bbe b06b fcbc eec9 5f3f
000002e0: fcb4 8a3c 0a41 783d 4202 11bf ff7e d1bd
000002f0: b98a 803b 526c 05be f595 c9bb a4f0 ff3d
00000300: 78bd b1bc 7bba a7bd 3f71 733e aaa6 b13e
00000310: aabb 33bd 4821 b93e fc7e c93e c326 0e3e
00000320: c9dd 76bd 10ae 013d 27c4 aebd f4a4 863e
00000330: 3616 893e 9fb8 9a3e 7806 693e 34b1 663d
00000340: dec0 58bc 7e53 c23e b928 603e abaf 553e
00000350: e742 953d 255d b23e db5f f93d b4e3 3a3d
00000360: a6a7 6e3e a005 c8bd 4be6 563e faff 953e
00000370: d677 b33e e2cb bb3e 6a8e 42bc e996 513e
00000380: 8cd1 163d 4f06 2bbd 1753 c53e fbe1 6e3e
00000390: ea07 f5bd 1d4c bf3e f08a cd3e 709e 763e
000003a0: 0cc3 c93d 4f33 b43e 2e88 983e 7806 a33e
000003b0: 5fc2 02bf 2a24 993e fd3c 9d3e c9f7 043f
000003c0: a08e f33e be9c ca3e 2077 773e c2cc 913e
000003d0: 725e ad3e c077 f53b 3ef8 d93e 2d67 6a3e
000003e0: 5f9a c13e 67af 9f3e ee6b 06be 2c35 46bd
000003f0: 6ca8 e53e 42a8 863e ba46 723e 2304 ac3e

q_network.network.4.bias f4 [64]
0.1426293 0.12887862 0.0042248797 0.014703363 -0.091351375 0.19419533 0.094627626 0.020340344
-0.073865175 -0.08472367 0.3555718 -0.036808845 0.20877475 -0.015437927 0.005136406 0.0015148697
0.16221632 -0.03203079 0.29850778 0.17942698 -0.010901591 -0.07310686 0.07869193 -0.08818059
0.2240073 0.013826624 0.026700543 0.23185468 -0.10736609 -0.03674443 0.029923307 0.0068262108
0.13966541 -0.010467684 0.021697156 -0.0590644 0.18479718 0.12155667 0.13255107 0.08168506
-0.058834296 0.18812081 0.21806914 0.04563733 -0.17273498 0.119764395 0.2791725 0.1651502
-0.06169552 0.03309339 -0.011399672 0.23191628 0.18862318 -0.014142155 0.44890156 0.41817674
0.25488755 -0.0676634 0.0340293 -0.14058794 -0.1572632 -0.11499261 0.07153912 0.19295467
00000000: 6a0d 123e c2f8 033e dc70 8a3b 60e6 703c
00000010: 6e16 bbbd 24db 463e 21cc c13d cba0 a63c
00000020: a046 97bd 9a83 adbd 820d b63e dfc4 16bd
00000030: 0cc9 553e 5cef 7cbc 4c4f a83b 988e c63a
00000040: 091c 263e b832 03bd 03d6 983e b5bb 373e
00000050: 969c 32bc 0db9 95bd 3c29 a13d 0698 b4bd
00000060: 2b62 653e 1089 623c 19bb da3c 506b 6d3e
00000070: c1e2 dbbd 5481 16bd b921 f53c 68ae df3b
00000080: 7304 0f3e a680 2bbc 3cbe b13c 83ed 71bd
00000090: 793b 3d3e b4f2 f83d 78bb 073e 7f4a a73d
000000a0: 3bfc 70bd bea2 403e 844d 5f3e 35ee 3a3d
000000b0: 70e1 30be 0947 f53d b3ef 8e3e 221d 293e
000000c0: 71b4 7cbd ef8c 073d b1c5 3abc 767b 6d3e
000000d0: 6f26 413e 7fb4 67bc 6dd6 e53e 431b d63e
000000e0: 9f80 823e 1c93 8abd 4f62 0b3d 49f6 0fbe
000000f0: 9b09 21be 3f81 ebbd 1a83 923d e995 453e

q_network.network.6.weight f4 [2, 64]
0.18960644 0.18618199 -0.43364027 0.18324631 -0.08496166 0.2953291 0.19188766 0.32590738
0.06184119 -0.025097426 -0.06399867 0.27 0.3318711 -0.27466062 0.00701516 0.3278152
0.36087394 0.41619384 0.3798191 0.40493333 0.29166067 -0.02958704 0.41285366 0.07964368
0.35706434 0.3078507 -0.34681553 0.25911185 -0.06880273 -0.26459262 0.260164 0.41672865
0.30704018 0.38231927 0.3689601 0.21583255 0.20201357 0.36466712 -0.3275102 -0.9484538
-0.0034437776 0.2834835 0.39608437 0.3411953 -0.08703803 0.39315677 -1.1155233 0.33521226
0.10690382 0.28797585 0.25427768 0.21958601 0.25709978 -0.46138954 -0.69554716 -1.3036407
-1.204638 -0.018052982 0.26893884 0.38712865 -0.058330566 -0.066440985 -0.08937839 0.35434458
0.3690934 0.4086483 0.2234421 0.45604968 0.011251025 0.29765165 0.40471628 -0.4790082
0.11814016 -0.0362919 -1.0737911 -0.28253004 0.40836233 0.32830828 -0.13955954 0.30386192
-0.27118453 0.1832931 -0.79458416 0.23764639 -0.34793782 0.053126764 -0.30857188 -0.030632317
0.3755251 0.31004524 0.32721958 0.32031742 -0.0031172931 0.44204792 -0.27851835 0.26950255
0.43087408 0.25771016 0.38611633 -0.32396972 0.3684785 0.2962594 0.25086722 0.07724025
0.05080853 0.3526502 0.2983309 0.29826 -0.007394053 0.22707492 -0.8215182 0.2638761
-0.5311794 0.3728861 0.34238616 0.36101335 0.40856567 0.18010119 -1.1333882 -0.76453745
-0.20495377 0.013888933 0.37150463 -0.081408545 -0.10106417 -0.06450723 0.0015590191 0.42171603
00000000: 3128 423e 7ea6 3e3e 1906 debe eca4 3b3e
00000010: 6100 aebd 6035 973e 337e 443e 55dd a63e
00000020: 304d 7d3d 1e99 cdbc bc11 83bd 713d 8a3e
00000030: 02eb a93e 51a0 8cbe 6ddf e53b 65d7 a73e
00000040: 78c4 b83e 5c17 d53e a677 c23e 6c53 cf3e
00000050: 8c54 953e 8560 f2bc 8e61 d33e 3a1c a33d
00000060: 23d1 b63e 9b9e 9d3e ce91 b1be 4faa 843e
00000070: 72e8 8cbd af78 87be 3734 853e 755d d53e
00000080: 5f34 9d3e 5abf c33e 57e8 bc3e 3503 5d3e
00000090: a5dc 4e3e a6b5 ba3e 6baf a7be decd 72bf
000000a0: 00b1 61bb c024 913e 92cb ca3e 26b1 ae3e
000000b0: ff40 b2bd d84b c93e 78c9 8ebf f1a0 ab3e
000000c0: 64f0 da3d 9271 933e af30 823e 28db 603e
000000d0: 95a2 833e 403b ecbe 610f 32bf b3dd a6bf
000000e0: 9431 9abf d9e3 93bc 5ab2 893e ba35 c63e
000000f0: 08ec 6ebd 3612 88bd 040c b7bd a76c b53e
00000100: cff9 bc3e 5a3a d13e 02ce 643e 587f e93e
00000110: 3856 383c cc65 983e f936 cf3e 9040 f5be
00000120: 78f3 f13d d1a6 14bd fd71 89bf c7a7 90be
00000130: de14 d13e 0618 a83e b2e8 0ebe ca93 9b3e
00000140: b3d8 8abe 30b1 3b3e de69 4bbf 9359 733e
00000150: e824 b2be 739b 593d 22fd 9dbe a0f0 fabc
00000160: d344 c03e 40be 9e3e 5389 a73e a500 a43e
00000170: 804b 4cbb 1b54 e23e f599 8ebe 3dfc 893e
00000180: 879b dc3e 96f2 833e 0ab1 c53e 5cdf a5be
00000190: 37a9 bc3e 50af 973e ab71 803e 2330 9e3d
000001a0: 9b1c 503d 918e b43e d4be 983e 89b5 983e
000001b0: d049 f2bb 5486 683e 044f 52bf c51a 873e
000001c0: 60fb 07bf edea be3e 3d4d af3e bed6 b83e
000001d0: 852f d13e 726c 383e dd12 91bf bab8 43bf
000001e0: 67df 51be 688e 633c db35 be3e 86b9 a6bd
000001f0: bbfa cebd 5e1c 84bd 0058 cc3a 2aeb d73e

q_network.network.6.bias f4 [2]
0.19650523 0.15635401
00000000: ab38 493e 441b 203e

target_network.network.0.weight f4 [64, 4]
0.3071369 0.56465936 0.8862838 0.46415916 0.0933016 0.20930319 0.13285695 0.08209068
-0.24731635 0.5666892 0.5586643 -0.43123993 -0.39430523 -0.31857422 -1.4581822 -0.27410844
-0.32690558 0.17249262 -0.5740606 0.06556999 0.41443443 -0.18043843 -0.23620185 -0.23872377
-0.022354782 0.55847543 0.6339397 -0.038978994 -0.31213644 -0.2317923 1.0082698 -0.1262126
0.019839525 0.00080502755 0.44367245 -0.1406742 0.42817613 0.29672173 -0.29125378 0.15341896
0.12484132 0.06759575 1.089083 0.1540036 0.124456 -0.5983405 -1.2479246 -0.6538895
0.04101261 -0.25945958 -1.1524353 -0.3436689 -0.1506714 0.04606791 -0.33672127 0.1264315
-0.0050008353 0.23122421 -0.30113736 -0.24059288 0.09792485 0.2685657 -0.09669924 0.13954464
-0.4863758 0.44674516 0.9647656 0.62064 0.023043144 0.45842966 -0.41762543 -0.036780532
-0.07213605 0.18513925 1.306098 0.32874432 0.87978524 0.15463817 -0.89462405 0.023787927
0.22405624 0.52713346 0.87523305 0.4263231 -0.26475042 0.39823976 0.23945932 0.28462484
-0.15041225 -0.24499401 0.8071498 0.24143504 -0.36112386 0.45067185 -0.20395736 0.2594678
-0.84257865 -0.05724969 0.25590122 0.04244232 0.018947521 -0.022549244 0.44305924 0.5623631
0.7514745 -0.23556824 -0.38279435 -0.19354811 0.45189476 0.3866448 1.135912 0.2831517
0.044395402 0.012976618 -1.5981715 -0.510711 -0.065395035 -0.24020797 0.36824775 -0.3966986
-0.20193928 0.27213544 0.13860154 0.21491444 0.36276618 0.22576892 -0.08446231 0.24619466
0.42494732 0.086586 0.13957544 0.25044873 -0.27283153 0.021489091 1.056047 0.2809183
0.14098538 -0.37746024 0.4835363 0.4239907 -0.28934744 -0.38636962 -0.30471966 0.5020806
0.14871871 0.16473906 0.4465932 -0.10595674 0.66734654 0.30685383 -0.09213088 -0.44427365
-0.41958323 -0.11463328 -0.250924 0.33052957 0.016358819 0.50063366 0.40417737 -0.22294535
-0.27991086 0.40662342 -0.45193934 0.17755157 -0.38233113 0.10438467 0.27250913 0.14093429
0.7766736 0.5300003 0.45395875 0.39242002 0.19483349 -0.5964892 -0.3685567 0.20254731
0.32545123 0.34622037 0.18934126 0.2515303 -0.24935104 0.39179373 -0.3143019 0.17056285
-0.27362016 0.27023154 -0.10130196 0.044081338 0.58698076 -0.21221912 -0.7514509 -0.31088802
-0.28903788 -0.4221387 -0.17225502 -0.058506243 -0.2607063 -0.2449615 -1.1588904 -0.40242547
0.24389897 0.39001006 -0.01296006 0.33755282 0.33463627 0.37686738 0.28247374 0.3654603
0.3707398 0.2091641 -0.1666885 0.19193701 -0.2648245 0.07260704 -1.3950348 -0.07354146
0.1130407 -0.4024557 -0.21643002 0.20020914 -0.3677928 0.28269714 0.67245734 0.45976025
0.061805904 -0.2707421 -0.6162074 -0.15939967 0.039889276 0.053833593 -0.2811473 -0.49028006
-0.3475422 0.26167116 1.0293384 0.37648505 -0.2516715 -0.2757945 0.1887806 -0.012413728
0.3800799 0.34810314 0.7110849 0.3067776 0.48707074 0.065022826 -0.31485736 -0.44018543
-0.24201933 0.3875673 0.50833786 0.21548687 0.057692856 -0.2624604 -0.27605236 0.012848596
00000000: 0c41 9d3e 848d 103f 7fe3 623f 45a6 ed3e
00000010: e914 bf3d 9353 563e a70b 083e 291f a83d
00000020: 7f40 7dbe 8b12 113f a004 0f3f 7bcb dcbe
00000030: 60e2 c9be 291c a3be b7a5 babf f157 8cbe
00000040: 2b60 a7be e8a1 303e a3f5 12bf 8f49 863d
00000050: c030 d43e dac4 38be e6de 71be 0174 74be
00000060: 6021 b7bc 3ff8 0e3f df49 223f 70a8 1fbd
00000070: 59d0 9fbe f65a 6dbe fc0e 813f e03d 01be
00000080: 8086 a23c 7c08 533a 0929 e33e e60c 10be
00000090: e739 db3e e9eb 973e 371f 95be dc19 1d3e
000000a0: ceac ff3d a46f 8a3d 1267 8b3f 1fb3 1d3e
000000b0: cae2 fe3d d82c 19bf febb 9fbf 4d65 27bf
000000c0: d7fc 273d e3d7 84be 0083 93bf 5ff5 afbe
000000d0: 9a49 1abe b4b1 3c3d bb66 acbe 4277 013e
000000e0: 0cde a3bb 0ac6 6c3e ad2e 9abe fb5d 76be
000000f0: d38c c83d 7281 893e 400a c6bd cae4 0e3e
00000100: 4006 f9be c8bb e43e e1fa 763f 43e2 1e3f
00000110: fac4 bc3c 4bb7 ea3e 00d3 d5be 2fa7 16bd
00000120: 11bc 93bd 2595 3d3e 382e a73f 2d51 a83e
00000130: 9b39 613f 7859 1e3e 1506 65bf e6de c23c
00000140: 006f 653e 38f2 063f 460f 603f 0547 da3e
00000150: 5e8d 87be 15e6 cb3e d334 753e 59ba 913e
00000160: ab05 1abe b6df 7abe 5fa1 4e3f bf3a 773e
00000170: 3ae5 b8be 76be e63e 33da 50be f7d8 843e
00000180: 3cb3 57bf a77e 6abd 7c05 833e 00d8 2d3d
00000190: d537 9b3c 31b9 b8bc a9d8 e23e 07f7 0f3f
000001a0: a260 403f cd38 71be 9ffd c3be 7a31 46be
000001b0: c05e e73e 4ff6 c53e 9065 913f 42f9 903e
000001c0: f4d7 353d e19b 543c e290 ccbf f5bd 02bf
000001d0: d5ed 85bd 14f9 75be f88a bc3e 141c cbbe
000001e0: 2cc9 4ebe 5655 8b3e 90ed 0d3e 8812 5c3e
000001f0: 7dbc b93e f82f 673e 93fa acbd 741a 7c3e
00000200: b292 d93e 0054 b13d ddec 0e3e d13a 803e
00000210: 93b0 8bbe e409 b03c 8c2c 873f 86d4 8f3e
00000220: 795e 103e 7842 c1be 1292 f73e 4f15 d93e
00000230: 5925 94be 3dd2 c5be 3704 9cbe 5b88 003f
00000240: b849 183e 5bb1 283e dda7 e43e d9ff d8bd
00000250: 39d7 2a3f f21b 9d3e 1daf bcbd d677 e3be
00000260: 9dd3 d6be dac4 eabd 1c79 80be 2c3b a93e
00000270: ee02 863c 8729 003f 56f0 ce3e c94b 64be
00000280: 7a50 8fbe f230 d03e 9864 e7be 14d0 353e
00000290: e8c0 c3be a1c7 d53d 5186 8b3e 1451 103e
000002a0: 15d4 463f 1aae 073f 486d e83e 47eb c83e
000002b0: 6e82 473e 84b3 18bf 77b3 bcbe 9068 4f3e
000002c0: 8ba1 a63e cc43 b13e ade2 413e 94c8 803e
000002d0: e155 7fbe 3099 c83e 2eec a0be 07a8 2e3e
000002e0: f117 8cbe ca5b 8a3e 6777 cfbd a28e 343d
000002f0: 5f44 163f f84f 59be 165f 40bf b72c 9fbe
00000300: c6fc 93be 9022 d8be 9f63 30be 3ea4 6fbd
00000310: 4c7b 85be 30d7 7abe 8556 94bf b60a cebe
00000320: a7c0 793e 66af c73e 6e56 54bc b9d3 ac3e
00000330: 7255 ab3e c3f4 c03e 66a0 903e 9d1d bb3e
00000340: 9bd1 bd3e 1d2f 563e 64b0 2abe 238b 443e
00000350: 1497 87be 00b3 943d 8090 b2bf e89c 96bd
00000360: e281 e73d ac0e cebe d59f 5dbe a003 4d3e
00000370: 564f bcbe aebd 903e 2a26 2c3f b265 eb3e
00000380: 3028 7d3d b59e 8abe c5bf 1dbf ab39 23be
00000390: f062 233d 9d80 5c3d 8af2 8fbe fd05 fbbe
000003a0: 0df1 b1be c3f9 853e 5cc1 833f a6c2 c03e
000003b0: 16db 80be f034 8dbe b44f 413e f362 4bbc
000003c0: d599 c23e 933a b23e a909 363f f411 9d3e
000003d0: 5661 f93e b02a 853d fc34 a1be fc5f e1be
000003e0: ead3 77be 396f c63e 6e22 023f 97a8 5c3e
000003f0: 584f 6c3d 3661 86be bc56 8dbe eb82 523c

target_network.network.0.bias f4 [64]
0.015030808 0.19112211 -0.23116963 0.22623909 0.36924458 0.33980957 -0.25463185 0.22962748
0.3779012 0.5792283 -0.16450964 -0.3259631 -0.23918864 0.32399195 0.54396516 -0.42228138
-0.36006337 -0.56379294 -0.35494116 0.15680967 -0.035089035 0.18291289 -0.61830425 0.32950625
-0.21229993 -0.5630768 -0.20207757 -0.22482724 -0.3503582 0.53714216 -0.4813931 0.42050898
0.52623296 0.4308778 -0.090925805 0.40716136 0.4562014 -0.17793341 0.3977079 0.52381945
-0.48211038 0.23638399 -0.48270142 -0.09854889 0.39639136 0.42125878 0.46113 0.3497337
0.116986305 -0.20725754 0.39980617 0.52480245 0.4838693 -0.2048939 0.4436464 -0.4007137
0.39026538 -0.2823287 -0.36124578 0.3921423 -0.23869587 -0.32556984 0.17574516 0.53268003
00000000: c743 763c 84b5 433e bbb7 6cbe 38ab 673e
00000010: a00d bd3e 85fb ad3e 1b5f 82be 7723 6b3e
00000020: 447c c13e 4e48 143f 3775 28be a3e4 a6be
00000030: deed 74be 46e2 a53e 4d41 0b3f 4435 d8be
00000040: 3a5a b8be bc54 10bf d9ba b5be b792 203e
00000050: 85b9 0fbd 844d 3b3e 3049 1ebf 0bb5 a83e
00000060: 2765 59be cd25 10bf 6ced 4ebe 1d39 66be
00000070: 2662 b3be 2682 093f 2879 f6be f44c d73e
00000080: 34b7 063f 049c dc3e 4f37 babd 7477 d03e
00000090: 3b93 e93e 2d34 36be 5fa0 cb3e 0819 063f
000000a0: 2cd7 f6be a50e 723e a424 f7be 00d4 c9bd
000000b0: cff3 ca3e 3baf d73e 3b19 ec3e 4c10 b33e
000000c0: 8496 ef3d 523b 54be 65b3 cc3e 7459 063f
000000d0: b8bd f73e b5cf 51be 9f25 e33e 592a cdbe
000000e0: ddd0 c73e 638d 90be 35f5 b8be e0c6 c83e
000000f0: b16c 74be 17b1 a6be 8af6 333e b85d 083f

target_network.network.2.weight f4 [64, 64]
0.5236634 0.34698468 -0.07469384 -0.32376418 -0.004447407 -0.07287117 -0.32366994 0.17916718
0.2076157 0.17391445 0.85353994 -1.3850515 -0.9107999 -0.0030176362 -0.06828123 0.18644913
1.6837469 0.18816759 1.7918022 -0.19580728 0.61859155 0.20393744 0.011517373 0.13660258
0.188505 0.9532291 -0.13608772 0.45640582 -2.007956 0.005270106 -0.06817955 0.080857046
0.061663702 0.43384713 0.42926595 0.15780671 0.15598296 -0.23384887 0.024155242 0.14058582
-0.057150558 0.085854106 -0.10834414 0.022026394 0.2074185 0.1133671 0.12979272 -0.23960151
-0.3172663 -0.42463112 0.14633484 0.32140455 0.21461968 -1.5050187 0.023629464 1.3995361
0.0096064145 -0.17078939 1.3973548 0.33918488 0.21092768 -0.17814058 0.3149508 -0.0762278
-0.092865005 0.087486975 -0.091595665 0.06351455 0.08025242 0.07481313 0.11424534 0.008464791
-0.09549664 0.090487614 -0.011782838 -0.036716517 -0.031632695 -0.027314287 -0.112585634 0.068842724
-0.008072381 0.0989324 -0.09200041 -0.03798578 0.041715413 -0.030749733 0.073547706 0.060854957
-0.033432167 0.07354978 0.0047099143 -0.050843064 -0.09713827 0.0358768 -0.0032157302 -0.092312224
-0.070964865 -0.084050655 -0.008726623 -0.054143876 -0.07037438 0.075180225 -0.09815675 -0.068389244
-0.031477198 0.057601176 0.036017105 0.058377933 -0.12182357 -0.050840788 -0.085141234 -0.07886671
-0.028439997 -0.04699288 -0.111115545 -0.04158109 0.0726421 -0.03396696 0.094252065 0.0290041
0.06990554 0.009520014 0.09464286 -0.08859189 -0.10183592 0.1131642 -0.035988856 -0.120484106
-0.536521 0.014965457 0.085383564 -0.0881343 0.23623796 0.07514388 0.032625314 -0.0885713
-0.03270592 0.050810557 -0.7402315 -0.41462597 -0.5436601 0.037746202 -0.104886636 -0.3067168
-0.41785353 -0.13561893 -1.0079296 -0.25040466 -0.5261342 0.18971089 -0.2513857 0.20630208
0.0052482686 -0.28154406 -0.66665596 -0.9863798 -0.04148845 0.12511522 -0.007910967 0.116585515
0.1397405 -0.015548715 -0.08231299 0.042550273 -0.010501471 -0.23007354 0.0062846853 -0.07896278
-0.098184034 0.14806783 -0.3364011 -0.067298576 0.1351699 0.17780226 0.12838563 -0.08746681
0.2921792 0.14819892 0.07375658 0.15083295 0.044545874 -0.5502216 0.030160826 -0.054937664
0.18495716 0.11550569 -0.811964 0.092367664 -0.5334045 -0.06728161 0.15809862 0.16404444
-0.41951522 0.1588277 -0.044966515 -0.26029408 0.091926806 -0.041545153 -0.11792052 -0.037111443
0.03756697 0.19108887 -0.61602026 -1.1063123 -1.0035623 -0.004791147 0.09294858 -0.2253936
-0.4106508 -0.06489797 -1.0022701 -0.18585742 -0.359895 0.26358014 -0.35638958 0.15450129
-0.24141535 0.009114438 -0.59789425 -0.8395435 -0.17130256 0.14878066 0.034502402 0.19961932
0.16380838 -0.20835018 -0.11341035 0.09055694 0.12048369 -0.21395293 0.021402651 -0.0099670375
0.121737465 -0.114097364 -0.31981942 0.0509761 0.19778082 0.13243459 0.06973514 -0.04685909
0.092246875 -0.3461878 0.06416283 0.030105827 0.07666224 -0.54952383 0.0022038394 0.021217627
0.16836004 -0.1709949 -0.68964875 0.047177177 -0.422379 -0.07335183 0.12803905 0.17943007
00000000: ce0e 063f faa7 b13e 16f9 98bd 6bc4 a5be
00000010: 8ebb 91bb 7b3d 95bd 11b8 a5be 9a77 373e
00000020: 3699 543e a116 323e 9881 5a3f 5e49 b1bf
00000030: 2f2a 69bf 89c3 45bb 08d7 8bbd 85ec 3e3e
00000040: 0585 d73f 01af 403e c659 e53f b481 48be
00000050: 045c 1e3f fad4 503e 5db3 3c3c 8ce1 0b3e
00000060: 7407 413e d306 743f 945a 0bbe 06ae e93e
00000070: 5a82 00c0 dab0 ac3b b8a1 8bbd 6198 a53d
00000080: 1493 7c3d 3621 de3e bfc8 db3e 1598 213e
00000090: ffb9 1f3e 1476 6fbe 37e1 c53c bbf5 0f3e
000000a0: b416 6abd 47d4 af3d 88e3 ddbd b270 b43c
000000b0: 8465 543e 032d e83d 62e8 043e 195a 75be
000000c0: ba70 a2be 4069 d9be cdd8 153e 238f a43e
000000d0: 43c5 5b3e 74a4 c0bf 9492 c13c 0024 b33f
000000e0: 3964 1d3c 6ae3 2ebe 86dc b23f a4a9 ad3e
000000f0: 6dfd 573e 7c6a 36be 3b41 a13e 521d 9cbd
00000100: 0230 bebd 5f2c b33d 8296 bbbd eb13 823d
00000110: 615b a43d a037 993d 76f9 e93d e8af 0a3c
00000120: be93 c3bd 9251 b93d ce0c 41bc 0f64 16bd
00000130: 4991 01bd 36c2 dfbc 4c93 e6bd 6afd 8c3d
00000140: 0542 04bc 129d ca3d b66a bcbd fa96 1bbd
00000150: c8dd 2a3d dde6 fbbc 2ea0 963d 0c43 793d
00000160: 2bf0 08bd 44a1 963d a055 9a3b d140 50bd
00000170: 6ef0 c6bd 8df3 123d 00bf 52bb 310e bdbd
00000180: 0756 91bd c022 acbd 1cfa 0ebc f8c5 5dbd
00000190: 7120 90bd 17f8 993d 6806 c9bd a90f 8cbd
000001a0: 3cee 00bd 36ef 6b3d ac86 133d b31d 6f3d
000001b0: a37e f9bd 6e3e 50bd 875e aebd df84 a1bd
000001c0: fffa e8bc 9b7b 40bd 8c90 e3bd ef50 2abd
000001d0: 62c5 943d f020 0bbd 3a07 c13d 029a ed3c
000001e0: a32a 8f3d d5f9 1b3c 1ed4 c13d aa6f b5bd
000001f0: 5a8f d0bd a2c2 e73d 0d69 13bd 5fc0 f6bd
00000200: 7159 09bf ad31 753c 94dd ae3d c27f b4bd
00000210: 5de8 713e 09e5 993d 1fa2 053d df64 b5bd
00000220: a5f6 05bd bb1e 503d d07f 3dbf db49 d4be
00000230: 4f2d 0bbf c39b 1a3d cece d6bd fc09 9dbe
00000240: e6f0 d5be b0df 0abe d603 81bf 0a35 80be
00000250: bbb0 06bf 9243 423e a0b5 80be da40 533e
00000260: abf9 ab3b 8b26 90be f7a9 2abf 6383 7cbf
00000270: cbef 29bd 341e 003e 009d 01bc 63c4 ee3d
00000280: 2218 0f3e 0ac0 7ebc b793 a8bd 3249 2e3d
00000290: 5d0e 2cbc 6698 6bbe c3ef cd3b 3db7 a1bd
000002a0: b614 c9bd 189f 173e c43c acbe d6d3 89bd
000002b0: fa69 0a3e cc11 363e 8677 033e cd21 b3bd
000002c0: 8398 953e 75c1 173e b10d 973d f473 1a3e
000002d0: bc75 363d 53db 0cbf d613 f73c 5106 61bd
000002e0: 6965 3d3e 3f8e ec3d dfdc 4fbf 422b bd3d
000002f0: 338d 08bf f1ca 89bd 9be4 213e 44fb 273e
00000300: b3ca d6be bba3 223e cf2e 38bd 4445 85be
00000310: 1f44 bc3d 402b 2abd 5080 f1bd 2b02 18bd
00000320: d3df 193d cdac 433e 81b3 1dbf a49b 8dbf
00000330: bb74 80bf 0eff 9cbb d35b be3d 94cd 66be
00000340: d240 d2be 3ae9 84bd 634a 80bf 6851 3ebe
00000350: 2844 b8be faf3 863e b278 b6be 9635 1e3e
00000360: 9635 77be b954 153c 990f 19bf 53ec 56bf
00000370: f069 2fbe f559 183e 6452 0d3d 0269 4c3e
00000380: 62bd 273e c059 55be b043 e8bd eb75 b93d
00000390: 27c0 f63d 7a16 5bbe 9d54 af3c c94c 23bc
000003a0: 7e51 f93d e1ab e9bd 5fbf a3be 51cc 503d
000003b0: 0e87 4a3e ef9c 073e 4cd1 8e3d 51ef 3fbd
000003c0: eeeb bc3d 873f b1be cd67 833d 7fa0 f63c
000003d0: 1801 9d3d 98ad 0cbf 4a6e 103b 97d0 ad3c
000003e0: 9366 2c3e 4919 2fbe d28c 30bf db3c 413d
000003f0: 0f42 d8be 7c39 96bd ab1c 033e 84bc 373e

target_network.network.2.bias f4 [64]
0.035431582 0.015172033 0.21209592 0.038262624 -0.114651784 0.22356413 0.181094 0.07332454
-0.014254812 0.15860628 0.040864024 0.18921955 0.15466088 0.12601797 0.081495866 -0.008138704
-0.029441552 0.26071122 0.04215632 0.11558251 0.06689987 0.19800971 -0.07161602 0.13211332
0.10243995 -0.14098337 0.16168895 0.13050933 0.1503198 0.034109958 0.07085029 0.16501375
-0.0037913322 0.20397769 0.076333255 0.21198633 -0.10072974 0.08984232 0.111124866 0.24968553
0.27323318 0.21773393 0.110480174 0.07885914 0.17833088 0.10733953 0.082193784 0.13684604
0.020383518 0.20991772 0.17401955 0.20301525 0.032790452 0.23708633 0.11222698 0.09080061
0.073347196 0.039439585 0.049631152 0.04755871 -0.006879019 0.040454056 0.11639858 0.15411904
00000000: b520 113d 1e94 783c ac2f 593e 45b9 1c3d
00000010: 8ece eabd ffed 643e b570 393e 2d2b 963d
00000020: 048d 69bc af69 223e 0961 273d c5c2 413e
00000030: 6c5f 1e3e db0a 013e 4ee7 a63d 3358 05bc
00000040: 692f f1bc f17b 853e 1bac 2c3d 86b6 ec3d
00000050: cd02 893d 0fc3 4a3e 6bab 92bd b748 073e
00000060: 09cc d13d f25d 10be ca91 253e 3da4 053e
00000070: 6fed 193e e2b6 0b3d f519 913d 5df9 283e
00000080: 0078 78bb 87df 503e 9c54 9c3d f212 593e
00000090: 654b cebd 40ff b73d 6f95 e33d 90ad 7f3e
000000a0: 38e5 8b3e a5f5 5e3e 6e43 e23d e780 a13d
000000b0: 5f9c 363e d4d4 db3d 3755 a83d 5e21 0c3e
000000c0: 56fb a63c acf4 563e 2e32 323e 3be3 4f3e
000000d0: 484f 063d c2c6 723e 42d7 e53d acf5 b93d
000000e0: 0e37 963d 678b 213d 094a 4b3d eccc 423d
000000f0: 6569 e1bb 27b3 253d 6162 ee3d 62d1 1d3e

target_network.network.4.weight f4 [64, 64]
0.0347987 -0.062138632 0.36253098 0.345936 -0.013809987 0.26265305 0.486691 0.2153925
-0.002842554 0.20753251 -0.09194873 0.36877507 0.4646814 0.21544887 0.2767163 -0.08348108
-0.01452092 0.23308872 0.30853438 0.23697102 -0.0397626 0.37831968 -0.051001653 0.26718673
0.2774014 -0.021639114 0.12784982 0.37081474 0.40689543 0.43215692 0.00722689 0.21111329
0.023201048 0.03097543 0.23236784 0.33045945 0.017742945 0.4702298 0.24188979 0.26002455
0.183961 0.2507252 0.25953737 0.21813272 -0.5504019 0.4192019 0.24912377 0.40501702
0.38199806 0.43751726 0.31156793 0.19157499 0.25024965 0.2519021 0.44599518 0.37047827
0.31398383 0.17828944 -0.09055911 -0.1013077 0.43115616 0.16836967 0.16688587 0.14361472
-0.019857576 -0.00013285106 0.41915503 0.20007966 -0.018168341 0.3253919 0.41759086 0.2310555
-0.095393345 0.023845136 0.028521439 0.27068198 0.30299416 0.22811915 0.3140032 -0.067614205
-0.050135743 0.14561078 0.33804613 0.22118863 0.05515832 0.23136471 0.062723815 0.08497515
0.32439944 0.06784843 0.112340905 0.349106 0.31006768 0.45267233 0.008810198 0.42165127
-0.061553538 0.15409467 0.2533762 0.2498316 0.051544838 0.49190176 0.4023024 0.40012723
0.19220796 0.20512201 0.42297894 0.40729252 -0.5695264 0.44766617 0.23835334 0.27819544
0.27563372 0.38407308 0.24320205 0.08592095 0.33451816 0.19113629 0.29706842 0.42793322
0.31157354 0.25255 -0.24752189 -0.041195568 0.41724378 0.19420993 0.09618183 0.30414885
0.41703466 0.0810839 -0.0067587034 0.050367635 0.122815266 0.14488758 0.14449751 0.10006289
-0.08705898 0.009582265 0.07485339 0.061350755 -0.03496611 0.045479815 -0.06187476 0.055225268
-0.1162169 0.19012028 -0.01888152 -0.014302896 0.07778812 0.041355457 -0.05229704 0.007409035
0.08796958 0.11219081 0.09256408 0.06905872 0.33236033 0.21394418 0.110844575 0.16212626
0.019824028 -0.292939 0.107378945 0.16749956 -0.09427086 0.08821305 0.19636814 -0.052835595
-0.21523924 0.089392915 -0.028734865 -0.0075530154 -0.58171195 0.28946167 -0.09143374 0.04708402
0.009240363 0.10763956 0.27140725 -0.06063901 0.091499984 -0.1986753 -0.030813068 0.87417495
0.016932003 0.0606089 -0.5664407 -0.10229301 0.003922787 -0.13029602 -0.0061519095 0.124970704
-0.021696791 -0.08189865 0.23773669 0.34697467 -0.043880142 0.36158204 0.39354694 0.13881974
-0.060270105 0.03166014 -0.08533507 0.26297724 0.26774758 0.3021898 0.22756374 0.056321338
-0.013229577 0.37954324 0.21890534 0.20867793 0.07288151 0.3483669 0.12176486 0.04562731
0.2330614 -0.09766698 0.20986287 0.29296857 0.35052365 0.36678988 -0.0118747745 0.20467724
0.036820933 -0.041754063 0.38539955 0.23328392 -0.119644 0.37362757 0.40145063 0.24083877
0.09851655 0.35195395 0.29791397 0.31840873 -0.51077837 0.29910403 0.30710593 0.5194059
0.47569752 0.3957271 0.24166536 0.2847653 0.3386112 0.007491082 0.42572206 0.22890921
0.37813088 0.3118851 -0.1312711 -0.048390552 0.44855058 0.26300246 0.23659793 0.33596906
00000000: 1589 0e3d 1485 7ebd a99d b93e 861e b13e
00000010: 4943 62bc 767a 863e 902f f93e da8f 5c3e
00000020: 244a 3abb 6783 543e 9e4f bcbd 16d0 bc3e
00000030: b8ea ed3e a19e 5c3e c2ad 8d3e 21f8 aabd
00000040: 27e9 6dbc cfae 6e3e 38f8 9d3e 88a8 723e
00000050: 1cde 22bd 1eb3 c13e 1ce7 50bd b3cc 883e
00000060: 8e07 8e3e 8344 b1bc 10eb 023e 6edb bd3e
00000070: 9954 d03e ac43 dd3e 8ccf ec3b 152e 583e
00000080: 2010 be3c 2fc0 fd3c d6f1 6d3e fb31 a93e
00000090: a759 913c f6c1 f03e f5b1 773e f021 853e
000000a0: 4660 3c3e 0e5f 803e 15e2 843e 2f5e 5f3e
000000b0: 24e7 0cbf a2a1 d63e 4d1a 7f3e 645e cf3e
000000c0: 4095 c33e 4302 e03e d585 9f3e 3c2c 443e
000000d0: b920 803e 50f9 803e 7b59 e43e 54af bd3e
000000e0: 7dc2 a03e 8291 363e 0e77 b9bd 697a cfbd
000000f0: 80c0 dc3e 1969 2c3e 21e4 2a3e bd0f 133e
00000100: 5bac a2bc ef4d 0bb9 7d9b d63e afe1 4c3e
00000110: c6d5 94bc c499 a63e 78ce d53e d099 6c3e
00000120: 965d c3bd e056 c33c cba5 e93c d496 8a3e
00000130: 0d22 9b3e 1198 693e 07c5 a03e 5179 8abd
00000140: 235b 4dbd fe1a 153e 6214 ad3e 467f 623e
00000150: b1ed 613d dfea 6c3e 5875 803d 7407 ae3d
00000160: af17 a63e 1ef4 8a3d fd12 e63d 06be b23e
00000170: 31c1 9e3e abc4 e73e a658 103c ade2 d73e
00000180: 901f 7cbd feca 1d3e 86ba 813e dbd3 7f3e
00000190: ae20 533d 8cda fb3e 95fa cd3e 7add cc3e
000001a0: 2ad2 443e 810b 523e b290 d83e a588 d03e
000001b0: 7bcc 11bf 8034 e53e e612 743e a26f 8e3e
000001c0: dd1f 8d3e 3aa5 c43e f509 793e 53f7 af3d
000001d0: f745 ab3e 3bb9 433e 5a19 983e 101a db3e
000001e0: 9186 9f3e 3c4e 813e 6176 7dbe afbc 28bd
000001f0: faa0 d53e f8de 463e fbfa c43d 66b9 9b3e
00000200: 9185 d53e 510f a63d 1d78 ddbb 4b4e 4e3d
00000210: 9286 fb3d 695d 143e 28f7 133e c6ed cc3d
00000220: fa4b b2bd effe 1c3c bc4c 993d ee4a 7b3d
00000230: a038 0fbd 0b49 3a3d 6370 7dbd e433 623d
00000240: 2003 eebd e4ae 423e 6bad 9abc b256 6abc
00000250: 614f 9f3d 5764 293d 6c35 56bd 7ec7 f23b
00000260: 6529 b43d 4cc4 e53d 3d92 bd3d a86e 8d3d
00000270: 222b aa3e 2f14 5b3e 7b02 e33d 6d04 263e
00000280: 0066 a23c 1afc 95be 7ee9 db3d 0185 2b3e
00000290: 1511 c1bd 0ba9 b43d bb14 493e 236a 58bd
000002a0: ad67 5cbe a213 b73d 6165 ebbc 497f f7bb
000002b0: 13eb 14bf 5234 943e 9d41 bbbd 2cdb 403d
000002c0: e464 173c 2172 dc3d e4f5 8a3e 9c60 78bd
000002d0: 5864 bb3d 8a71 4bbe b06b fcbc eec9 5f3f
000002e0: fcb4 8a3c 0a41 783d 4202 11bf ff7e d1bd
000002f0: b98a 803b 526c 05be f595 c9bb a4f0 ff3d
00000300: 78bd b1bc 7bba a7bd 3f71 733e aaa6 b13e
00000310: aabb 33bd 4821 b93e fc7e c93e c326 0e3e
00000320: c9dd 76bd 10ae 013d 27c4 aebd f4a4 863e
00000330: 3616 893e 9fb8 9a3e 7806 693e 34b1 663d
00000340: dec0 58bc 7e53 c23e b928 603e abaf 553e
00000350: e742 953d 255d b23e db5f f93d b4e3 3a3d
00000360: a6a7 6e3e a005 c8bd 4be6 563e faff 953e
00000370: d677 b33e e2cb bb3e 6a8e 42bc e996 513e
00000380: 8cd1 163d 4f06 2bbd 1753 c53e fbe1 6e3e
00000390: ea07 f5bd 1d4c bf3e f08a cd3e 709e 763e
000003a0: 0cc3 c93d 4f33 b43e 2e88 983e 7806 a33e
000003b0: 5fc2 02bf 2a24 993e fd3c 9d3e c9f7 043f
000003c0: a08e f33e be9c ca3e 2077 773e c2cc 913e
000003d0: 725e ad3e c077 f53b 3ef8 d93e 2d67 6a3e
000003e0: 5f9a c13e 67af 9f3e ee6b 06be 2c35 46bd
000003f0: 6ca8 e53e 42a8 863e ba46 723e 2304 ac3e

target_network.network.4.bias f4 [64]
0.1426293 0.12887862 0.0042248797 0.014703363 -0.091351375 0.19419533 0.094627626 0.020340344
-0.073865175 -0.08472367 0.3555718 -0.036808845 0.20877475 -0.015437927 0.005136406 0.0015148697
0.16221632 -0.03203079 0.29850778 0.17942698 -0.010901591 -0.07310686 0.07869193 -0.08818059
0.2240073 0.013826624 0.026700543 0.23185468 -0.10736609 -0.03674443 0.029923307 0.0068262108
0.13966541 -0.010467684 0.021697156 -0.0590644 0.18479718 0.12155667 0.13255107 0.08168506
-0.058834296 0.18812081 0.21806914 0.04563733 -0.17273498 0.119764395 0.2791725 0.1651502
-0.06169552 0.03309339 -0.011399672 0.23191628 0.18862318 -0.014142155 0.44890156 0.41817674
0.25488755 -0.0676634 0.0340293 -0.14058794 -0.1572632 -0.11499261 0.07153912 0.19295467
00000000: 6a0d 123e c2f8 033e dc70 8a3b 60e6 703c
00000010: 6e16 bbbd 24db 463e 21cc c13d cba0 a63c
00000020: a046 97bd 9a83 adbd 820d b63e dfc4 16bd
00000030: 0cc9 553e 5cef 7cbc 4c4f a83b 988e c63a
00000040: 091c 263e b832 03bd 03d6 983e b5bb 373e
00000050: 969c 32bc 0db9 95bd 3c29 a13d 0698 b4bd
00000060: 2b62 653e 1089 623c 19bb da3c 506b 6d3e
00000070: c1e2 dbbd 5481 16bd b921 f53c 68ae df3b
00000080: 7304 0f3e a680 2bbc 3cbe b13c 83ed 71bd
00000090: 793b 3d3e b4f2 f83d 78bb 073e 7f4a a73d
000000a0: 3bfc 70bd bea2 403e 844d 5f3e 35ee 3a3d
000000b0: 70e1 30be 0947 f53d b3ef 8e3e 221d 293e
000000c0: 71b4 7cbd ef8c 073d b1c5 3abc 767b 6d3e
000000d0: 6f26 413e 7fb4 67bc 6dd6 e53e 431b d63e
000000e0: 9f80 823e 1c93 8abd 4f62 0b3d 49f6 0fbe
000000f0: 9b09 21be 3f81 ebbd 1a83 923d e995 453e
